…
I0710 23:22:31.345477  2736 net.cpp:290] The NetState phase (0) differed from the phase (1) specified by a rule in layer mnist
I0710 23:22:31.345485  2736 net.cpp:290] The NetState phase (0) differed from the phase (1) specified by a rule in layer accuracy
I0710 23:22:31.345542  2736 net.cpp:43] Initializing net from parameters: 
name: "LeNet"
state {
  phase: TRAIN
}
layer {
  name: "mnist"
  type: "Data"
  top: "data"
  top: "label"
  include {
    phase: TRAIN
  }
  transform_param {
    scale: 0.00390625
  }
  data_param {
    source: "examples/mnist/mnist_train_lmdb"
    batch_size: 64
    backend: LMDB
  }
}
layer {
  name: "conv1"
  type: "Convolution"
  bottom: "data"
  top: "conv1"
  param {
    lr_mult: 1
  }
  param {
    lr_mult: 2
  }
  convolution_param {
    num_output: 20
    kernel_size: 5
    stride: 1
    weight_filler {
      type: "xavier"
    }
    bias_filler {
      type: "constant"
    }
  }
}
layer {
  name: "pool1"
  type: "Pooling"
  bottom: "conv1"
  top: "pool1"
  pooling_param {
    pool: MAX
    kernel_size: 2
    stride: 2
  }
}
layer {
  name: "conv2"
  type: "Convolution"
  bottom: "pool1"
  top: "conv2"
  param {
    lr_mult: 1
  }
  param {
    lr_mult: 2
  }
  convolution_param {
    num_output: 50
    kernel_size: 5
    stride: 1
    weight_filler {
      type: "xavier"
    }
    bias_filler {
      type: "constant"
    }
  }
}
layer {
  name: "pool2"
  type: "Pooling"
  bottom: "conv2"
  top: "pool2"
  pooling_param {
    pool: MAX
    kernel_size: 2
    stride: 2
  }
}
layer {
  name: "ip1"
  type: "InnerProduct"
  bottom: "pool2"
  top: "ip1"
  param {
    lr_mult: 1
  }
  param {
    lr_mult: 2
  }
  inner_product_param {
    num_output: 500
    weight_filler {
      type: "xavier"
    }
    bias_filler {
      type: "constant"
    }
  }
}
layer {
  name: "relu1"
  type: "ReLU"
  bottom: "ip1"
  top: "ip1"
}
layer {
  name: "ip2"
  type: "InnerProduct"
  bottom: "ip1"
  top: "ip2"
  param {
    lr_mult: 1
  }
  param {
    lr_mult: 2
  }
  inner_product_param {
    num_output: 10
    weight_filler {
      type: "xavier"
    }
    bias_filler {
      type: "constant"
    }
  }
}
layer {
  name: "loss"
  type: "SoftmaxWithLoss"
  bottom: "ip2"
  bottom: "label"
  top: "loss"
}
I0710 23:22:31.345585  2736 layer_factory.hpp:74] Creating layer mnist
I0710 23:22:31.345597  2736 net.cpp:90] Creating Layer mnist
I0710 23:22:31.345600  2736 net.cpp:378] mnist -> data
I0710 23:22:31.345615  2736 net.cpp:378] mnist -> label
I0710 23:22:31.345621  2736 net.cpp:120] Setting up mnist
I0710 23:22:31.345685  2736 db_lmdb.cpp:23] Opened lmdb examples/mnist/mnist_train_lmdb
I0710 23:22:31.345712  2736 data_layer.cpp:53] output data size: 64,1,28,28
I0710 23:22:31.346158  2736 net.cpp:127] Top shape: 64 1 28 28 (50176)
I0710 23:22:31.346164  2736 net.cpp:127] Top shape: 64 (64)
I0710 23:22:31.346168  2736 layer_factory.hpp:74] Creating layer conv1
I0710 23:22:31.346174  2736 net.cpp:90] Creating Layer conv1
I0710 23:22:31.346176  2736 net.cpp:423] conv1 <- data
I0710 23:22:31.346184  2736 net.cpp:378] conv1 -> conv1
I0710 23:22:31.346191  2736 net.cpp:120] Setting up conv1
I0710 23:22:31.346662  2736 net.cpp:127] Top shape: 64 20 24 24 (737280)
I0710 23:22:31.346675  2736 layer_factory.hpp:74] Creating layer pool1
I0710 23:22:31.346681  2736 net.cpp:90] Creating Layer pool1
I0710 23:22:31.346683  2736 net.cpp:423] pool1 <- conv1
I0710 23:22:31.346688  2736 net.cpp:378] pool1 -> pool1
I0710 23:22:31.346693  2736 net.cpp:120] Setting up pool1
I0710 23:22:31.346704  2736 net.cpp:127] Top shape: 64 20 12 12 (184320)
I0710 23:22:31.346705  2736 layer_factory.hpp:74] Creating layer conv2
I0710 23:22:31.346710  2736 net.cpp:90] Creating Layer conv2
I0710 23:22:31.346724  2736 net.cpp:423] conv2 <- pool1
I0710 23:22:31.346729  2736 net.cpp:378] conv2 -> conv2
I0710 23:22:31.346734  2736 net.cpp:120] Setting up conv2
I0710 23:22:31.346949  2736 net.cpp:127] Top shape: 64 50 8 8 (204800)
I0710 23:22:31.346956  2736 layer_factory.hpp:74] Creating layer pool2
I0710 23:22:31.346961  2736 net.cpp:90] Creating Layer pool2
I0710 23:22:31.346961  2736 net.cpp:423] pool2 <- conv2
I0710 23:22:31.346964  2736 net.cpp:378] pool2 -> pool2
I0710 23:22:31.346968  2736 net.cpp:120] Setting up pool2
I0710 23:22:31.346973  2736 net.cpp:127] Top shape: 64 50 4 4 (51200)
I0710 23:22:31.346974  2736 layer_factory.hpp:74] Creating layer ip1
I0710 23:22:31.346979  2736 net.cpp:90] Creating Layer ip1
I0710 23:22:31.346982  2736 net.cpp:423] ip1 <- pool2
I0710 23:22:31.346984  2736 net.cpp:378] ip1 -> ip1
I0710 23:22:31.346988  2736 net.cpp:120] Setting up ip1
I0710 23:22:31.348981  2736 net.cpp:127] Top shape: 64 500 (32000)
I0710 23:22:31.348995  2736 layer_factory.hpp:74] Creating layer relu1
I0710 23:22:31.349001  2736 net.cpp:90] Creating Layer relu1
I0710 23:22:31.349004  2736 net.cpp:423] relu1 <- ip1
I0710 23:22:31.349007  2736 net.cpp:367] relu1 -> ip1 (in-place)
I0710 23:22:31.349015  2736 net.cpp:120] Setting up relu1
I0710 23:22:31.349019  2736 net.cpp:127] Top shape: 64 500 (32000)
I0710 23:22:31.349020  2736 layer_factory.hpp:74] Creating layer ip2
I0710 23:22:31.349025  2736 net.cpp:90] Creating Layer ip2
I0710 23:22:31.349026  2736 net.cpp:423] ip2 <- ip1
I0710 23:22:31.349030  2736 net.cpp:378] ip2 -> ip2
I0710 23:22:31.349033  2736 net.cpp:120] Setting up ip2
I0710 23:22:31.349184  2736 net.cpp:127] Top shape: 64 10 (640)
I0710 23:22:31.349190  2736 layer_factory.hpp:74] Creating layer loss
I0710 23:22:31.349195  2736 net.cpp:90] Creating Layer loss
I0710 23:22:31.349197  2736 net.cpp:423] loss <- ip2
I0710 23:22:31.349200  2736 net.cpp:423] loss <- label
I0710 23:22:31.349203  2736 net.cpp:378] loss -> loss
I0710 23:22:31.349208  2736 net.cpp:120] Setting up loss
I0710 23:22:31.349212  2736 layer_factory.hpp:74] Creating layer loss
…
I0710 23:22:31.349515  2736 solver.cpp:155] Creating test net (#0) specified by net file: examples/mnist/lenet_train_test.prototxt
I0710 23:22:31.349532  2736 net.cpp:290] The NetState phase (1) differed from the phase (0) specified by a rule in layer mnist
I0710 23:22:31.349601  2736 net.cpp:43] Initializing net from parameters: 
name: "LeNet"
state {
  phase: TEST
}
layer {
  name: "mnist"
  type: "Data"
  top: "data"
  top: "label"
  include {
    phase: TEST
  }
  transform_param {
    scale: 0.00390625
  }
  data_param {
    source: "examples/mnist/mnist_test_lmdb"
    batch_size: 100
    backend: LMDB
  }
}
layer {
  name: "conv1"
  type: "Convolution"
  bottom: "data"
  top: "conv1"
  param {
    lr_mult: 1
  }
  param {
    lr_mult: 2
  }
  convolution_param {
    num_output: 20
    kernel_size: 5
    stride: 1
    weight_filler {
      type: "xavier"
    }
    bias_filler {
      type: "constant"
    }
  }
}
layer {
  name: "pool1"
  type: "Pooling"
  bottom: "conv1"
  top: "pool1"
  pooling_param {
    pool: MAX
    kernel_size: 2
    stride: 2
  }
}
layer {
  name: "conv2"
  type: "Convolution"
  bottom: "pool1"
  top: "conv2"
  param {
    lr_mult: 1
  }
  param {
    lr_mult: 2
  }
  convolution_param {
    num_output: 50
    kernel_size: 5
    stride: 1
    weight_filler {
      type: "xavier"
    }
    bias_filler {
      type: "constant"
    }
  }
}
layer {
  name: "pool2"
  type: "Pooling"
  bottom: "conv2"
  top: "pool2"
  pooling_param {
    pool: MAX
    kernel_size: 2
    stride: 2
  }
}
layer {
  name: "ip1"
  type: "InnerProduct"
  bottom: "pool2"
  top: "ip1"
  param {
    lr_mult: 1
  }
  param {
    lr_mult: 2
  }
  inner_product_param {
    num_output: 500
    weight_filler {
      type: "xavier"
    }
    bias_filler {
      type: "constant"
    }
  }
}
layer {
  name: "relu1"
  type: "ReLU"
  bottom: "ip1"
  top: "ip1"
}
layer {
  name: "ip2"
  type: "InnerProduct"
  bottom: "ip1"
  top: "ip2"
  param {
    lr_mult: 1
  }
  param {
    lr_mult: 2
  }
  inner_product_param {
    num_output: 10
    weight_filler {
      type: "xavier"
    }
    bias_filler {
      type: "constant"
    }
  }
}
layer {
  name: "accuracy"
  type: "Accuracy"
  bottom: "ip2"
  bottom: "label"
  top: "accuracy"
  include {
    phase: TEST
  }
}
layer {
  name: "loss"
  type: "SoftmaxWithLoss"
  bottom: "ip2"
  bottom: "label"
  top: "loss"
}
I0710 23:22:31.349668  2736 layer_factory.hpp:74] Creating layer mnist
I0710 23:22:31.349673  2736 net.cpp:90] Creating Layer mnist
I0710 23:22:31.349674  2736 net.cpp:378] mnist -> data
I0710 23:22:31.349679  2736 net.cpp:378] mnist -> label
I0710 23:22:31.349683  2736 net.cpp:120] Setting up mnist
I0710 23:22:31.349720  2736 db_lmdb.cpp:23] Opened lmdb examples/mnist/mnist_test_lmdb
I0710 23:22:31.349735  2736 data_layer.cpp:53] output data size: 100,1,28,28
I0710 23:22:31.349932  2736 net.cpp:127] Top shape: 100 1 28 28 (78400)
I0710 23:22:31.349937  2736 net.cpp:127] Top shape: 100 (100)
I0710 23:22:31.349939  2736 layer_factory.hpp:74] Creating layer label_mnist_1_split
I0710 23:22:31.349947  2736 net.cpp:90] Creating Layer label_mnist_1_split
I0710 23:22:31.349949  2736 net.cpp:423] label_mnist_1_split <- label
I0710 23:22:31.349952  2736 net.cpp:378] label_mnist_1_split -> label_mnist_1_split_0
I0710 23:22:31.349956  2736 net.cpp:378] label_mnist_1_split -> label_mnist_1_split_1
I0710 23:22:31.349961  2736 net.cpp:120] Setting up label_mnist_1_split
I0710 23:22:31.349966  2736 net.cpp:127] Top shape: 100 (100)
I0710 23:22:31.349967  2736 net.cpp:127] Top shape: 100 (100)
I0710 23:22:31.349969  2736 layer_factory.hpp:74] Creating layer conv1
I0710 23:22:31.349974  2736 net.cpp:90] Creating Layer conv1
I0710 23:22:31.349977  2736 net.cpp:423] conv1 <- data
I0710 23:22:31.349979  2736 net.cpp:378] conv1 -> conv1
I0710 23:22:31.349984  2736 net.cpp:120] Setting up conv1
I0710 23:22:31.350059  2736 net.cpp:127] Top shape: 100 20 24 24 (1152000)
I0710 23:22:31.350064  2736 layer_factory.hpp:74] Creating layer pool1
I0710 23:22:31.350069  2736 net.cpp:90] Creating Layer pool1
I0710 23:22:31.350070  2736 net.cpp:423] pool1 <- conv1
I0710 23:22:31.350073  2736 net.cpp:378] pool1 -> pool1
I0710 23:22:31.350077  2736 net.cpp:120] Setting up pool1
I0710 23:22:31.350085  2736 net.cpp:127] Top shape: 100 20 12 12 (288000)
I0710 23:22:31.350086  2736 layer_factory.hpp:74] Creating layer conv2
I0710 23:22:31.350090  2736 net.cpp:90] Creating Layer conv2
I0710 23:22:31.350091  2736 net.cpp:423] conv2 <- pool1
I0710 23:22:31.350095  2736 net.cpp:378] conv2 -> conv2
I0710 23:22:31.350098  2736 net.cpp:120] Setting up conv2
I0710 23:22:31.350280  2736 net.cpp:127] Top shape: 100 50 8 8 (320000)
I0710 23:22:31.350286  2736 layer_factory.hpp:74] Creating layer pool2
I0710 23:22:31.350288  2736 net.cpp:90] Creating Layer pool2
I0710 23:22:31.350289  2736 net.cpp:423] pool2 <- conv2
I0710 23:22:31.350292  2736 net.cpp:378] pool2 -> pool2
I0710 23:22:31.350306  2736 net.cpp:120] Setting up pool2
I0710 23:22:31.350311  2736 net.cpp:127] Top shape: 100 50 4 4 (80000)
I0710 23:22:31.350312  2736 layer_factory.hpp:74] Creating layer ip1
I0710 23:22:31.350317  2736 net.cpp:90] Creating Layer ip1
I0710 23:22:31.350317  2736 net.cpp:423] ip1 <- pool2
I0710 23:22:31.350320  2736 net.cpp:378] ip1 -> ip1
I0710 23:22:31.350324  2736 net.cpp:120] Setting up ip1
I0710 23:22:31.352192  2736 net.cpp:127] Top shape: 100 500 (50000)
I0710 23:22:31.352200  2736 layer_factory.hpp:74] Creating layer relu1
I0710 23:22:31.352202  2736 net.cpp:90] Creating Layer relu1
I0710 23:22:31.352205  2736 net.cpp:423] relu1 <- ip1
I0710 23:22:31.352207  2736 net.cpp:367] relu1 -> ip1 (in-place)
I0710 23:22:31.352210  2736 net.cpp:120] Setting up relu1
I0710 23:22:31.352213  2736 net.cpp:127] Top shape: 100 500 (50000)
I0710 23:22:31.352215  2736 layer_factory.hpp:74] Creating layer ip2
I0710 23:22:31.352218  2736 net.cpp:90] Creating Layer ip2
I0710 23:22:31.352221  2736 net.cpp:423] ip2 <- ip1
I0710 23:22:31.352223  2736 net.cpp:378] ip2 -> ip2
I0710 23:22:31.352226  2736 net.cpp:120] Setting up ip2
I0710 23:22:31.352335  2736 net.cpp:127] Top shape: 100 10 (1000)
I0710 23:22:31.352339  2736 layer_factory.hpp:74] Creating layer ip2_ip2_0_split
I0710 23:22:31.352342  2736 net.cpp:90] Creating Layer ip2_ip2_0_split
I0710 23:22:31.352344  2736 net.cpp:423] ip2_ip2_0_split <- ip2
I0710 23:22:31.352347  2736 net.cpp:378] ip2_ip2_0_split -> ip2_ip2_0_split_0
I0710 23:22:31.352351  2736 net.cpp:378] ip2_ip2_0_split -> ip2_ip2_0_split_1
I0710 23:22:31.352355  2736 net.cpp:120] Setting up ip2_ip2_0_split
I0710 23:22:31.352358  2736 net.cpp:127] Top shape: 100 10 (1000)
I0710 23:22:31.352360  2736 net.cpp:127] Top shape: 100 10 (1000)
I0710 23:22:31.352361  2736 layer_factory.hpp:74] Creating layer accuracy
I0710 23:22:31.352365  2736 net.cpp:90] Creating Layer accuracy
I0710 23:22:31.352366  2736 net.cpp:423] accuracy <- ip2_ip2_0_split_0
I0710 23:22:31.352370  2736 net.cpp:423] accuracy <- label_mnist_1_split_0
I0710 23:22:31.352372  2736 net.cpp:378] accuracy -> accuracy
I0710 23:22:31.352375  2736 net.cpp:120] Setting up accuracy
…
